…
he above command leads to the following results. It boosts the BERT default from f1 score of 88.52 to 90.54.\n\n```bash\n'exact': 83.6802270577105, 'f1': 90.54772098174814\n```\n\nThe change of `max_seq_length` from 512 to 384 in the above command leads to the f1 score of 90.34. Replacing the above \nmodel `zhiheng-huang/bert-base-uncased-embedding-relative-key-query` with \n`zhiheng-huang/bert-base-uncased-embedding-relative-key` leads to the f1 score of 89.51. The changing of 8 gpus to one \ngpu training leads to the f1 score of 90.71.", "(output): BertSelfOutput(\n                    (dense): Linear(in_features=768, out_features=768, bias=True)\n                    (LayerNorm): LayerNorm((768,), eps=1e-12, elementwise_affine=True)\n                    (dropout): Dropout(p=0.1, inplace=False)\n                  )\n                )\n                (intermediate): BertIntermediate(\n                  (dense): Linear(in_features=768, out_features=3072, bias=True)\n                )\n                (output): BertOutput(\n                  (dense): Linear(in_features=3072, out_features=768, bias=True)\n                  (LayerNorm): LayerNorm((768,), eps=1e-12, elementwise_affine=True)\n                  (dropout): Dropout(p=0.1, inplace=False)\n                )\n              )\n            )\n          )\n        )\n        (cls): BertOnlyMLMHead(\n          (predictions): BertLMPredictionHead(\n            (transform): BertPredictionHeadTransform(\n              (dense): Linear(in_features=768, out_features=768, bias=True)\n              (LayerNorm): LayerNorm((768,), eps=1e-12, elementwise_affine=True)\n            )", "(self): BertSelfAttention(\n                    (query): Linear(in_features=768, out_features=768, bias=True)\n                    (key): Linear(in_features=768, out_features=768, bias=True)\n                    (value): Linear(in_features=768, out_features=768, bias=True)\n                    (dropout): Dropout(p=0.1, inplace=False)\n                  )\n                  (output): BertSelfOutput(\n                    (dense): Linear(in_features=768, out_features=768, bias=True)\n                    (LayerNorm): LayerNorm((768,), eps=1e-12, elementwise_affine=True)\n                    (dropout): Dropout(p=0.1, inplace=False)\n                  )\n                )\n                (crossattention): BertAttention(\n                  (self): BertSelfAttention(\n                    (query): Linear(in_features=768, out_features=768, bias=True)\n                    (key): Linear(in_features=768, out_features=768, bias=True)\n                    (value): Linear(in_features=768, out_features=768, bias=True)\n                    (dropout): Dropout(p=0.1, inplace=False)\n                  )\n                  (output): BertSelfOutput(", "---\n \\\\( {}^1 \\\\) For a simpler explanation, the layer norm layer which is normally applied to \\\\( \\mathbf{\\overline{Z}} \\\\) before being processed by the feed forward layers is omitted for now.\n\n \\\\( {}^2 \\
…
