…
even NLP tasks. All *autoencoding*\nmodels of \ud83e\udd17Transformers can be found\n[here](https://huggingface.co/transformers/model_summary.html#autoencoding-models).\n\n## **Decoder**\n\nAs mentioned in the *Encoder-Decoder* section, the *transformer-based*\ndecoder defines the conditional probability distribution of a target\nsequence given the contextualized encoding sequence:\n\n$$ p_{\\theta_{dec}}(\\mathbf{Y}_{1: m} | \\mathbf{\\overline{X}}_{1:n}), $$", ">>> model = AutoModel.from_pretrained(\"bert-base-uncased\")\n>>> print(model)  # doctest: +IGNORE_RESULT\n...\n          (LayerNorm): LayerNorm((768,), eps=1e-12, elementwise_affine=True)\n          (dropout): Dropout(p=0.1, inplace=False)\n        )\n      )\n      (11): BertLayer(\n        (attention): BertAttention(\n          (self): BertSelfAttention(\n            (query): Linear(in_features=768, out_features=768, bias=True)\n            (key): Linear(in_features=768, out_features=768, bias=True)\n            (value): Linear(in_features=768, out_features=768, bias=True)\n            (dropout): Dropout(p=0.1, inplace=False)\n          )\n          (output): BertSelfOutput(\n            (dense): Linear(in_features=768, out_features=768, bias=True)\n            (LayerNorm): LayerNorm((768,), eps=1e-12, elementwise_affine=True)\n            (dropout): Dropout(p=0.1, inplace=False)\n          )\n        )\n        (intermediate): BertIntermediate(\n          (dense): Linear(in_features=768, out_features=3072, bias=True)\n          (intermediate_act_fn): GELUActivation()\n        )\n        (output): BertOutput(\n          (dense): Linear(in_features=3072, out_features=768, bias=True)\n          (LayerNorm): LayerNorm((768,), eps=1e-12, elementwise_affine=True)\n          (dropout): Dropout(p=0.1, inplace=False)\n        )\n      )\n    )\n  )\n  (pooler): BertPooler(\n    (dense): Linear(in_features=768, out_features=768, bias=True)\n    (activation): Tanh()\n  )\n)\n```", "(dense): Linear(in_features=3072, out_features=768, bias=True)\n                (LayerNorm): LayerNorm((768,), eps=1e-12, elementwise_affine=True)\n                (dropout): Dropout(p=0.1, inplace=False)\n              )\n            ),\n\t\t\t\t\t\t...\n\t\t\t\t\t\t,\n            (11): BertLayer(\n              (attention): BertAttention(\n                (self): BertSelfAttention(\n                  (query): Linear(in_features=768, out_features=768, bias=True)\n                  (key): Linear(in_features=768, out_features=768, bias=True)\n                  (value): Linear(in_features=768, out_features=768, bias=True)\n                  (dropout): Dropout(p=0.1, inplace=False)\n                )\n                (output): BertSelfOutput(\n                  (dense): Linear(in_features=768, out_features=768, bias=True)\n                  (LayerNorm): LayerNorm((768,), eps=1e-12, elementwise_affine=True)\n                  (dropout): Dropout(p=0.1, inplace=False)\n                )\n              )\n              (intermediate): BertIntermediate(\n                (dense): Linear(in_features=768, out_features=3072, bias=True)\n              )\n              (output): BertOutput(\n                (dense): Linear(in_features=3072, out_features=768, bias=True)\n                (LayerNorm): LayerNorm((768,), eps=1e-12, elementwise_affine=True)\n                (dropout): Dropout(p=0.1, inplace=False)\n              )\n            )\n          )\n        )\n        (pooler): BertPooler(", "##### Base models fine-tuning\n\n```bash\nexport CUDA_VISIBLE_DEVICES=0,1,2,3,4,5,6,7\ntorchrun --nproc_per_node=8 ./examples/question-answering/run_squad.py \\\n    --model_name_or_path zhiheng-huang/bert-ba
…
